models/behavior_cloning.pt (torch, 14081 bytes, 6 tensors)

network.0.weight f4 [64, 8]
00000000: e28e 3d3d 8214 4abd 5fb8 e2bd 1309 f83d
00000010: 478d 18be 4fc9 56be 8875 473e 1fd1 4abe
00000020: d678 9cbe f3c9 4bbe 9d98 a4be c85c 933e
00000030: 7266 a1be ca2d 8e3d ef33 383d 0dd9 fabc
00000040: a9f4 8d3e cda0 b03e d4f6 9d3e 61ca 61be
00000050: 694e 6c3e fe45 983e f5b7 46be 51c5 81be
00000060: 41d8 cc3d 5867 85be 2b2a 30bd 802e 6f3e
00000070: 4b72 1e3e 0e8c 9bbe 306a 813d e131 80bc
00000080: 1baf b3be fb3c dc3d 7eca 713d 3653 9dbc
00000090: 818a c2bd e3b5 1fbe 9a5c 71be 6f5a 113e
000000a0: f107 073e 3a88 a03d 8785 533d 9331 9fbe
000000b0: 29dd 3b3c 6438 4ebe c218 9ebe 54a5 4abd
000000c0: b4a4 89be dae3 963e 1ff2 36be c1c0 a7be
000000d0: c273 283e b7af 20bd 11cc 1cbd c87c a0be
000000e0: f32b d33d c008 743e 7d8b 953d dacb 1f3e
000000f0: 216f 93be 61d4 2a3e dcc9 65be 6588 b3be
00000100: 04e2 a5be b3b6 963e 9b63 613e 7b16 0a3e
00000110: 6f0d d2bd c280 4c3e 4de7 073d e1bf 013e
00000120: 7d8b 48bc f547 f2bc d65a 773e 6727 86be
00000130: e376 9a3e d9d1 893e c2ac 88be dd51 a0be
00000140: 06ae f43d 913e 393d c6c3 a03c 53ad 9b3e
00000150: de8c 85bd 16c8 1fbe 694e 90bb 1f6a 553e
00000160: 4c52 dcbd 88aa 063e 2353 4f3e 1e56 66be
00000170: 5c2c 4f3e 0af3 a43d ce38 a43d bd38 1fbe
00000180: 5893 753e 139b 843e ce50 c2be db00 8a3d
00000190: 729f ab3e 5971 a13c 3dca 733a c959 a6bd
000001a0: 69db 613e ac85 8f3d 2e3f 193e 637d 41be
000001b0: f161 333e 31f2 363c 1ba7 f4bd c720 70be
000001c0: 132c 02be 63b7 c9bd 1997 6cbe 759a 0b3d
000001d0: bc06 8cbd c4a5 d83d 2aef ffbd 7127 703e
000001e0: 5ac6 a03e 787f 073c a545 ac3e 3672 b9bd
000001f0: 9008 9b3e f625 e8bd 438a 963e 554b 93be
00000200: 69cc 72be 75cb 57be 0715 84bd 8ee9 0dbd
00000210: 3fc8 acbd 4368 6abc 6954 723e 23f9 1b3e
00000220: e8fd 883e 83db 0dbb 9569 76be 442d 87be
00000230: d21a bdbe 4ebb 1c3d dd1f 46be 485a c7bd
00000240: 4449 bb3d 6150 5dbe 40a4 7c3e 4d40 03be
00000250: fb0b 973d 1f87 05be 42f7 9dbd 8a31 6c3d
00000260: d9df b23e 7430 edbd 88b7 ab3e b399 0e3e
00000270: ee3c 423d c8ed d7bd 2564 2dbe 569e 2cbe
00000280: 4acb 14be b80d 57be 32b4 89be 92ca 5ebe
00000290: e2ba 68be 4963 50be 4996 6fbe 6fb5 a93e
000002a0: 89ca 8e3e 9885 863e 38d3 44bc f28c 1d3d
000002b0: dfad 503d 734f 693e 9237 973e 8684 13bd
000002c0: 41c0 743e 9019 903d 1114 b9bd f69b a0bc
000002d0: 4245 363e b850 be3b 5720 aabe f936 a8be
000002e0: d25c 943e c8c0 14be d4ee f5bd a3f9 95be
000002f0: 4a58 e139 cd15 9a3e aba8 3c3e de2e 71be
00000300: 1f8c a0be 452d 43bd 5f1f 9d3d 5847 85be
00000310: 5ff4 a6be 1992 303e 69ac f23d 6e08 4a3e
00000320: 7c3d 0f3e 4077 16be 4358 ecbd 672a 64be
00000330: 6e34 7a3e 28d9 a8be 9d04 da3c cc56 f1bd
00000340: 8846 4d3e f730 1c3d e889 76be 0875 55be
00000350: 9200 6dbe 1947 2bbd dba2 f3bd 65e3 f53d
00000360: a07d 6f3e 764f 95be 290e a1bd b0a7 313e
00000370: 9aab 093e af84 29be af7c 273e 6ab8 913e
00000380: 3b7c 8ebe 9b5b 92be bd19 8cbd 8946 133e
00000390: 2fa5 e63d 9609 853e f5d1 853e c32e 4b3e
000003a0: a822 a13e aa44 cfbd 2469 16be 31f8 aebe
000003b0: dde8 18bd 7d3e e73c 75b5 983c d52d 3d3e
000003c0: 5119 f33d dfcb 82be 50e2 60be c9c1 8e3e
000003d0: 1ad8 34be aaa7 34bd c741 b13d 6b01 40be
000003e0: 10a5 343e 5381 2d3e 08dc ae3d 0f8f 883e
000003f0: 2b91 4cbd ae97 f73d 4136 ddbd 295a 6cbe
0.04627884 -0.049335964 -0.11070322 0.12111106 -0.14897643 -0.2097523 0.19478428 -0.19806336
-0.3056094 -0.19901256 -0.32147685 0.28781724 -0.31523472 0.06942327 0.044971403 -0.030621076
0.27725723 0.3449768 0.30852377 -0.22049858 0.23076786 0.297409 -0.19406112 -0.25345853
0.10002185 -0.26055408 -0.043008965 0.23357582 0.15473287 -0.3038029 0.06319082 -0.015648784
-0.35094532 0.107538186 0.059031002 -0.019204717 -0.09499074 -0.15596728 -0.23570481 0.14194654
0.13186623 0.07838483 0.051641013 -0.3109251 0.011466303 -0.20138699 -0.30878264 -0.049474075
-0.2688347 0.29470712 -0.178658 -0.32764247 0.16450408 -0.039230075 -0.03828055 -0.313452
0.10311117 0.23831463 0.07301996 0.15605107 -0.28795722 0.16682579 -0.22440284 -0.35064998
-0.32399 0.29436263 0.22010653 0.13485138 -0.102564685 0.19970992 0.03317957 0.12670852
-0.012240288 -0.029575327 0.24155745 -0.26201937 0.30168828 0.26917914 -0.26694304 -0.31312457
0.11947255 0.045225684 0.019624602 0.30405673 -0.06521009 -0.1560367 -0.0044038785 0.20841263
-0.107578844 0.1315099 0.20246558 -0.22493789 0.20231766 0.080541685 0.08018647 -0.15548988
0.23981988 0.25899562 -0.37952274 0.067384444 0.33520085 0.019707369 0.000929985 -0.08122594
0.22056355 0.07007918 0.14965507 -0.18895487 0.1751783 0.011166141 -0.11945935 -0.23450004
-0.12712125 -0.09849431 -0.23104514 0.03408285 -0.06837222 0.10578492 -0.12496789 0.23452546
0.3140133 0.008270137 0.33646885 -0.09054987 0.3027997 -0.113353655 0.2940236 -0.2876841
-0.23710789 -0.21073706 -0.06449323 -0.034646563 -0.084366314 -0.0143070845 0.23665012 0.15231757
0.26756215 -0.0021645732 -0.24063714 -0.26401722 -0.36934525 0.038264565 -0.19348092 -0.09734017
0.09144834 -0.21612693 0.24672031 -0.12817498 0.07375332 -0.13039826 -0.07713176 0.05766443
0.34936407 -0.11581507 0.3353846 0.13925819 0.04742139 -0.105434 -0.16932733 -0.16857275
-0.14530674 -0.21001327 -0.2689529 -0.21756962 -0.2272754 -0.20350374 -0.23397173 0.33146235
0.27888897 0.262738 -0.012013249 0.038464494 0.050947066 0.22784214 0.29534584 -0.036015056
0.23901464 0.07036126 -0.090370305 -0.019605618 0.17799857 0.0058079623 -0.33227798 -0.3285444
0.28977066 -0.14526665 -0.120084435 -0.2929202 0.00042981125 0.30094758 0.18423717 -0.23553035
-0.31356904 -0.047650594 0.07671999 -0.26030993 -0.32608315 0.17243232 0.11849291 0.19729778
0.13988298 -0.14693928 -0.11540272 -0.222818 0.24434063 -0.32978177 0.026613528 -0.11784133
0.20046437 0.038132634 -0.24076045 -0.20845425 -0.23144749 -0.04181585 -0.118962966 0.12006263
0.23387766 -0.29162186 -0.07864029 0.17349124 0.13444367 -0.16554521 0.16356157 0.2846101
-0.27829155 -0.28585514 -0.06840847 0.14382376 0.11261975 0.25983876 0.26136747 0.19842057
0.31471753 -0.101205185 -0.14688545 -0.3417373 -0.03733145 0.028228039 0.018641213 0.18474515
0.11870063 -0.25546166 -0.21961331 0.2788222 -0.17660561 -0.04410521 0.08655124 -0.18750541
0.17641091 0.16943865 0.085380614 0.26671645 -0.04994313 0.120894775 -0.10801364 -0.23081268

network.0.bias f4 [64]
00000000: c904 acbe 3160 d2bd 3fea 133d 6811 ac3d
00000010: 4d0a 5abc c15d 803e 6e0c 33be 0300 a6bd
00000020: 613e 89bd 6c96 643e 31a6 c4bd 4d8f 44bb
00000030: 0725 b3be 0f8b 4e3d 6109 723e c60c 16be
00000040: 9b4d 4e3e e9b1 62be a181 233e 2f60 0c3e
00000050: ee4b 9bbd 0446 923e 6703 8dbe 376e b4be
00000060: f20c 793e 0abd ad3e 63fc 923e 24de f2bd
00000070: a6bf a0bd b7bc 683e f055 873e 4e33 983e
00000080: 1fbc 9abc 6b6a 013e 146b adbe ff4d 3a3c
00000090: 2e1b e33d 87ad b93c 259d aabe 16a0 17be
000000a0: d2bb 23be 8203 aabe ebd6 1bbe 23d0 5439
000000b0: 583d 893e deb7 b0be 8e98 f8b8 dc8d 38be
000000c0: d341 333e 9bd0 48be 880b 3a3d b346 563c
000000d0: 303c 443e 5628 ee3d 95a4 833e 664e 223e
000000e0: 6567 363e 0b1c 2bbe 304e 2f3e 9236 023e
000000f0: e0b4 9fbe af07 18be 389b f5bd 8966 803e
-0.335974 -0.10272253 0.036112066 0.084017575 -0.01330812 0.2507153 -0.1748521 -0.08105471
-0.06701351 0.22323006 -0.09602011 -0.002999264 -0.34989187 0.050425585 0.2363639 -0.1465331
0.20146792 -0.2213818 0.15967418 0.13708566 -0.07582842 0.28569043 -0.27541658 -0.35240337
0.24321344 0.33933288 0.2870818 -0.11858776 -0.07849054 0.22728239 0.26432753 0.29726642
-0.018888531 0.12638251 -0.33870757 0.011371135 0.110891685 0.022665752 -0.33323017 -0.14807162
-0.15989617 -0.332058 -0.15218703 0.00020295432 0.26804614 -0.3451528 -0.00011853977 -0.18022865
0.17505579 -0.19610827 0.045421153 0.013078379 0.19163585 0.11628787 0.25711504 0.15850219
0.1781288 -0.16709916 0.1711967 0.1271613 -0.31192684 -0.14846681 -0.11992496 0.25078228

network.2.weight f4 [32, 64]
00000000: e426 dcbb f05c 8dbc bc0b 48bd 5eb6 64bd
00000010: 80d7 763b 00e9 b53b d021 3dbc 0021 ee3b
00000020: c208 633d 9cd3 01bd e563 82bc c5eb 6dbb
00000030: 4c1f 653d 59bc ba3d 24f2 803d 9602 113d
00000040: 30f7 87bc 02af 093d 3847 813d be04 03be
00000050: 46d6 b13d 87bc b83d 4c4f ad3d 5885 903d
00000060: ae37 903d f405 44bd 94d1 a83c a986 613d
00000070: 006f efbd dbc3 7d3d ad38 89bd b7cf 81bc
00000080: 7c03 10bd 008d afbd 329f cebd f86d 94bd
00000090: dce3 b5bd 9f3e d2bd ced1 763d 86f2 c5bd
000000a0: 6008 95bd 5244 72bc 5443 80bd 2298 c9bd
000000b0: 602d dcbc acef e83d 12f0 acbd 6032 21bd
000000c0: 9c85 bd3d 0ef8 db3d 90bf ac3c 13ca 9d3a
000000d0: af16 0f3c fbae 113d 08f8 aabd 8850 9abd
000000e0: bfaa 92bd 479c 213e e92e bd3d 0008 91bd
000000f0: 24fa 5b3d ef1b 7abd 71ba 1b3d abbd 1f3d
00000100: 9efa e2bd 7cc0 f83d 4e5a c7bd 9bc3 f2bd
00000110: 0845 c7bd a8eb a03d bec9 c73d 6892 fcbd
00000120: e001 b1bd a4e1 23bd d31d 98bd 6474 ef3c
00000130: 8e80 28bd 215f 173d f8fd ccbd 8c07 cabd
00000140: 1279 cb3d aeff 3f3c 6838 e7bd 1078 c8bd
00000150: e614 903d f587 873d f0fa 2f3d d6a0 ac3d
00000160: d6e8 f7bd 9bdb 0ebe e565 38bc 9ede 62bc
00000170: 1eab 81bd c7fd 07be 8331 d6bd db4a a2bd
00000180: bafd d73d a6ca 65bd f884 cbbd 9c5a d93d
00000190: b07c 473d 2059 0e3c 3784 0cbe 000a ab3c
000001a0: 39be 9e3c bd5f ca3c b8b9 db3d fa2d 0f3d
000001b0: b99d 313a bb53 67bd aac7 bbbc f429 7b3d
000001c0: 36f6 a1bd a467 dbbd 50b1 283d 85c8 e9bd
000001d0: a572 8b3d 6a8c 8c3d c09b bebd 8358 b23d
000001e0: cf7a 803d 46e6 d5bd 52ac e03d 308c 453d
000001f0: c78d e4bd f2b2 c039 1579 47bd 0f47 9b3d
00000200: 4d47 2dbd f4fc 093d 0867 dd3d f38b a6bd
00000210: 88ee e43c 58a2 de3c 9c15 753d 4c8b 5ebd
00000220: a52a fd3c 2ca8 873d adac 64bb 4346 0dbc
00000230: 2460 983d 911e c4bd 804c c1bd 978c cdbd
00000240: 4006 eebb c1ce c43d b001 113d dde1 e23d
00000250: 1e1d ab3d a2db e13d 301d e93c 43c9 bc3d
00000260: 4083 f5bb aca3 d5bd 69b8 74ba 4f4e 80bd
00000270: ccf8 e03d 5259 b93d 0da2 01be df78 a5bd
00000280: b8b3 e83c dc6c d0bd 2ae5 963d 4414 973d
00000290: 0854 b0bd 957e dc3c d680 8bbd 381c 85bd
000002a0: 3664 d4bd f49f 85bd 7ea4 ddbd 5407 1cbd
000002b0: 89be 9e3d 7561 aabd 9c28 a2bd 8acc d03d
000002c0: c0e3 383c 38cf a73c 1060 0fbd 1614 6abd
000002d0: 1082 febd fde1 8c3c 6036 7bbd 7fde a13d
000002e0: c3eb d1bc 6c47 efbc 8bf9 6dbd ca9e 01bd
000002f0: 7bde a03d 521a e13d d1bb c9bd dac2 90bd
00000300: e01e 153c de0e cabd b083 59bd fa0f ad3d
00000310: 6aca e9bd 5e57 b9bd e0ac 173c 52fa a3bd
00000320: b8e8 60bd b4e1 fb3d ace2 9dbd c8d5 853d
00000330: c0b1 10bc a8b0 afbc 109a 193d 28c5 10bd
00000340: e248 b53d 7c66 9cbd 28a2 e4bd 8091 a93c
00000350: 241c 0cbd cee9 c6bd 6447 90bd 5cba bfbd
00000360: 6e9b e2bd 98ee aebd dcbc a13d f08a 453d
00000370: 90ab 17bd f45b 00bd 4057 b9bb d4fb 47bd
00000380: 6098 bd3b 1e86 b03d d608 ec3d b4f8 31bd
00000390: f054 2ebc b07a f2bc 00c1 d4bd b068 d73c
000003a0: 6ce0 fa3d e484 a8bd 0085 8cba a41f f5bd
000003b0: 3886 313d 387e 013d 4026 9cbb 4ac4 bdbd
000003c0: 7895 56bd 8e47 84bd c4b9 5dbd 0ca7 863d
000003d0: 5a8a b2bd 3e30 a6bd 8c31 163d 7e24 fa3d
000003e0: 465c f63d 28a9 ed3d a658 983d b0ee 373d
000003f0: 5c90 3dbd 4c15 453d 788a a1bd 00a8 51bc
-0.0067185033 -0.01725623 -0.048839316 -0.05583798 0.003766507 0.0055514574 -0.011543706 0.0072671175
0.055428274 -0.031695947 -0.015916774 -0.003630386 0.05593805 0.09117956 0.06296185 0.035402857
-0.01659736 0.033614166 0.06312412 -0.12794778 0.086834475 0.09020334 0.0846239 0.07056683
0.0704187 -0.04785724 0.020607747 0.055060063 -0.116910934 0.06195436 -0.06700263 -0.015846116
-0.035159573 -0.085718155 -0.10088958 -0.072475374 -0.08881351 -0.1026585 0.06025868 -0.09665398
-0.07276988 -0.014786797 -0.06262842 -0.0984347 -0.026877105 0.11373839 -0.08444227 -0.039354682
0.092539996 0.10740672 0.021087438 0.0012038372 0.0087334355 0.035567265 -0.083480895 -0.07534891
-0.071614735 0.15782271 0.09237463 -0.07081604 0.05370535 -0.061061796 0.0380196 0.03899924
-0.11082958 0.121460885 -0.09734021 -0.11853715 -0.097299635 0.07857448 0.09755276 -0.12332612
-0.08642936 -0.04001011 -0.074275635 0.029230304 -0.041138224 0.036955956 -0.10009378 -0.09864721
0.09935202 0.011718674 -0.112900555 -0.09788525 0.07035236 0.066177286 0.042963922 0.084291145
-0.12104957 -0.1395096 -0.011254762 -0.013847021 -0.06331466 -0.13280402 -0.10458662 -0.07924434
0.105464414 -0.056101464 -0.09937471 0.106129855 0.048702896 0.008688241 -0.13722311 0.020878792
0.019377815 0.024703855 0.107287824 0.034955956 0.00067755167 -0.056476336 -0.022922356 0.061319306
-0.07908289 -0.10713127 0.041184723 -0.11415199 0.06808976 0.06862719 -0.09307051 0.087082885
0.06273424 -0.10444312 0.109703675 0.048229396 -0.111598544 0.00036754418 -0.048699457 0.07581913
-0.042304326 0.0336885 0.10810667 -0.08132162 0.027945772 0.02717702 0.05983506 -0.054332063
0.030904124 0.06623873 -0.0034892962 -0.008622709 0.07440212 -0.095761426 -0.09438419 -0.10036581
-0.0072639287 0.09609748 0.035402 0.11078236 0.08355163 0.1102822 0.0284563 0.09218075
-0.007492453 -0.104316086 -0.00093353406 -0.06264936 0.10984954 0.090502396 -0.12659474 -0.08079695
0.02840601 -0.10177013 0.07367928 0.07376912 -0.08609778 0.026915828 -0.06811683 -0.06499523
-0.10370676 -0.06524649 -0.1082239 -0.038092926 0.077511854 -0.0831937 -0.07917902 0.10195263
0.011284769 0.020484552 -0.03500372 -0.05714806 -0.12427151 0.017197603 -0.061331153 0.07903766
-0.025625115 -0.029208861 -0.05809931 -0.031645574 0.07854935 0.10991348 -0.09850276 -0.07068415
0.009101599 -0.09866117 -0.053104103 0.08450313 -0.114155605 -0.09049867 0.009257525 -0.08006729
-0.054909438 0.12298909 -0.0770925 0.06534916 -0.008831441 -0.021446541 0.03750044 -0.035344273
0.08851792 -0.07636735 -0.11163741 0.020699263 -0.034206524 -0.097125635 -0.07044867 -0.09361717
-0.11064802 -0.08541602 0.0789735 0.048228204 -0.03702885 -0.031337693 -0.005656153 -0.048824146
0.005785987 0.08619331 0.11525123 -0.043450072 -0.010640368 -0.029599518 -0.10388374 0.026295036
0.12249836 -0.08228472 -0.001072079 -0.119689256 0.04334089 0.031614512 -0.004765302 -0.09265955
-0.05238864 -0.064589605 -0.054132238 0.065748304 -0.08717795 -0.0811467 0.036668345 0.122139916
0.120293185 0.116045296 0.07438783 0.044905365 -0.04628025 0.048116013 -0.07887739 -0.012796402

network.2.bias f4 [32]
00000000: 2184 1abc 5347 c9bc 504a e23b 445a 983d
00000010: 8172 c5bd 887b 0c3d 36ca be3b 7b22 b4bd
00000020: 67bb a23c c226 13bd 0012 49ba 7044 07bd
00000030: 8c7f c73d 28b4 853d 88a1 c33c 189a 7dbd
00000040: 108b babd 58fb dd3b 2d53 d23d 5c0d c23c
00000050: 0e8f d0bd 8cf2 79bd f0bd aebc 2204 5f3d
00000060: 7bc5 113d 0ebc 963d f39c 453d 18f8 f4bd
00000070: aec3 eebd 4203 1e3d 726e 3fbd e286 bf3c
-0.009430916 -0.024570143 0.0069058314 0.07439092 -0.096409805 0.034297496 0.0058224453 -0.08795639
0.019864751 -0.035925634 -0.0007670224 -0.03302425 0.097411245 0.06528503 0.023880735 -0.061914533
-0.09108555 0.0067743473 0.10269771 0.02368801 -0.101835355 -0.061022326 -0.021330804 0.0544473
0.035588723 0.07360087 0.04824538 -0.11961383 -0.11658417 0.038577326 -0.04673619 0.023379747

network.4.weight f4 [2, 32]
00000000: 1ffb 8ebc a123 17be aec6 a5bd 8f29 c93d
00000010: 3a24 013e 7fb1 043c a073 8bbc 8168 623d
00000020: bbed 9fbd 6d03 1cbe c1ec 16be d6f4 233e
00000030: 2a92 16be 10ac 44bd 28ff 633c bb58 e43d
00000040: 3685 e83d 7c16 04be 0af6 edbd 5254 003e
00000050: 78e8 6e3c 1991 2fbe 1b6a 203e e591 0bbd
00000060: 3ed8 fbbd 96ad 11be e660 323d 393f 253d
00000070: 5ec6 18bd 9252 2d3e e008 073e ae84 f6bd
00000080: 8368 ca3d a165 9ebb 1442 9fbd b3e2 213e
00000090: fda0 44bc 5b80 583d 4df3 aebd ecca 833d
000000a0: 9512 9c3d 808e 3c3e c4f7 c53d ea40 433d
000000b0: d2a6 18be cc20 363e bc0c b83c 5500 2f3e
000000c0: dd45 d0bd eaee 7e3d 8bd8 0abe 4428 d33d
000000d0: 711e b23c 4078 023e cc06 e73d 5a4b 60bd
000000e0: 20f3 1fbe 883e c5bc 9ace d13c 3077 18be
000000f0: 81e8 72bd 5d7e 21be 0a7b 07be 24af 963c
-0.017453728 -0.14759685 -0.08094536 0.0982238 0.12611476 0.008098959 -0.017022908 0.055275444
-0.07809015 -0.15235682 -0.14738752 0.16011366 -0.14704195 -0.048015654 0.013915814 0.111497365
0.11353533 -0.12899202 -0.11619194 0.12532166 0.014581792 -0.17145194 0.15665476 -0.034074683
-0.12297104 -0.14226374 0.04354944 0.040343497 -0.037298553 0.1692603 0.1318698 -0.120370254
0.09883215 -0.0048338925 -0.07776275 0.15809135 -0.012001273 0.052856784 -0.085425 0.06435189
0.07620732 0.18413734 0.09666398 0.04766933 -0.14907387 0.17785949 0.02246701 0.1708997
-0.10169575 0.062239565 -0.13559167 0.103104144 0.021743031 0.12741184 0.11280593 -0.05475936
-0.15620089 -0.024077669 0.02561121 -0.14889216 -0.059303764 -0.1577086 -0.1323053 0.01839406

network.4.bias f4 [2]
00000000: 0723 cd3d 6bb7 29be
0.100164466 -0.16573875
